[*] Info: Thu May 26 17:54:08 2022
[*] Info: head_mimo.py
[***train.py***]------------------------------------------->Num. of Param Block = 186
********************************************************************************

******# Trainable param.= tensor(1233088.)
DeepRX(
  (conv1): Conv2d(18, 64, kernel_size=(3, 3), stride=(1, 1), padding=(1, 1), bias=False)
  (rs1): Sequential(
    (0): BatchNorm2d(64, eps=1e-05, momentum=0.1, affine=True, track_running_stats=True)
    (1): ReLU()
    (2): Conv2d(64, 64, kernel_size=(3, 3), stride=(1, 1), padding=(1, 1), groups=64)
    (3): Conv2d(64, 64, kernel_size=(1, 1), stride=(1, 1))
    (4): Conv2d(64, 64, kernel_size=(1, 1), stride=(1, 1))
    (5): BatchNorm2d(64, eps=1e-05, momentum=0.1, affine=True, track_running_stats=True)
    (6): ReLU()
    (7): Conv2d(64, 64, kernel_size=(3, 3), stride=(1, 1), padding=(1, 1), groups=64)
    (8): Conv2d(64, 64, kernel_size=(1, 1), stride=(1, 1))
    (9): Conv2d(64, 64, kernel_size=(1, 1), stride=(1, 1))
  )
  (rs2): Sequential(
    (0): BatchNorm2d(64, eps=1e-05, momentum=0.1, affine=True, track_running_stats=True)
    (1): ReLU()
    (2): Conv2d(64, 64, kernel_size=(3, 3), stride=(1, 1), padding=(1, 1), groups=64)
    (3): Conv2d(64, 64, kernel_size=(1, 1), stride=(1, 1))
    (4): Conv2d(64, 64, kernel_size=(1, 1), stride=(1, 1))
    (5): BatchNorm2d(64, eps=1e-05, momentum=0.1, affine=True, track_running_stats=True)
    (6): ReLU()
    (7): Conv2d(64, 64, kernel_size=(3, 3), stride=(1, 1), padding=(1, 1), groups=64)
    (8): Conv2d(64, 64, kernel_size=(1, 1), stride=(1, 1))
    (9): Conv2d(64, 64, kernel_size=(1, 1), stride=(1, 1))
  )
  (downsample_rs3): Conv2d(64, 128, kernel_size=(1, 1), stride=(1, 1))
  (rs3): Sequential(
    (0): BatchNorm2d(64, eps=1e-05, momentum=0.1, affine=True, track_running_stats=True)
    (1): ReLU()
    (2): Conv2d(64, 64, kernel_size=(3, 3), stride=(1, 1), padding=(2, 3), dilation=(2, 3), groups=64)
    (3): Conv2d(64, 128, kernel_size=(1, 1), stride=(1, 1))
    (4): Conv2d(128, 128, kernel_size=(1, 1), stride=(1, 1))
    (5): BatchNorm2d(128, eps=1e-05, momentum=0.1, affine=True, track_running_stats=True)
    (6): ReLU()
    (7): Conv2d(128, 128, kernel_size=(3, 3), stride=(1, 1), padding=(2, 3), dilation=(2, 3), groups=128)
    (8): Conv2d(128, 128, kernel_size=(1, 1), stride=(1, 1))
    (9): Conv2d(128, 128, kernel_size=(1, 1), stride=(1, 1))
  )
  (rs4): Sequential(
    (0): BatchNorm2d(128, eps=1e-05, momentum=0.1, affine=True, track_running_stats=True)
    (1): ReLU()
    (2): Conv2d(128, 128, kernel_size=(3, 3), stride=(1, 1), padding=(2, 3), dilation=(2, 3), groups=128)
    (3): Conv2d(128, 128, kernel_size=(1, 1), stride=(1, 1))
    (4): Conv2d(128, 128, kernel_size=(1, 1), stride=(1, 1))
    (5): BatchNorm2d(128, eps=1e-05, momentum=0.1, affine=True, track_running_stats=True)
    (6): ReLU()
    (7): Conv2d(128, 128, kernel_size=(3, 3), stride=(1, 1), padding=(2, 3), dilation=(2, 3), groups=128)
    (8): Conv2d(128, 128, kernel_size=(1, 1), stride=(1, 1))
    (9): Conv2d(128, 128, kernel_size=(1, 1), stride=(1, 1))
  )
  (downsample_rs5): Conv2d(128, 256, kernel_size=(1, 1), stride=(1, 1))
  (rs5): Sequential(
    (0): BatchNorm2d(128, eps=1e-05, momentum=0.1, affine=True, track_running_stats=True)
    (1): ReLU()
    (2): Conv2d(128, 128, kernel_size=(3, 3), stride=(1, 1), padding=(2, 3), dilation=(2, 3), groups=128)
    (3): Conv2d(128, 256, kernel_size=(1, 1), stride=(1, 1))
    (4): Conv2d(256, 256, kernel_size=(1, 1), stride=(1, 1))
    (5): BatchNorm2d(256, eps=1e-05, momentum=0.1, affine=True, track_running_stats=True)
    (6): ReLU()
    (7): Conv2d(256, 256, kernel_size=(3, 3), stride=(1, 1), padding=(2, 3), dilation=(2, 3), groups=256)
    (8): Conv2d(256, 256, kernel_size=(1, 1), stride=(1, 1))
    (9): Conv2d(256, 256, kernel_size=(1, 1), stride=(1, 1))
  )
  (rs6): Sequential(
    (0): BatchNorm2d(256, eps=1e-05, momentum=0.1, affine=True, track_running_stats=True)
    (1): ReLU()
    (2): Conv2d(256, 256, kernel_size=(3, 3), stride=(1, 1), padding=(3, 6), dilation=(3, 6), groups=256)
    (3): Conv2d(256, 256, kernel_size=(1, 1), stride=(1, 1))
    (4): Conv2d(256, 256, kernel_size=(1, 1), stride=(1, 1))
    (5): BatchNorm2d(256, eps=1e-05, momentum=0.1, affine=True, track_running_stats=True)
    (6): ReLU()
    (7): Conv2d(256, 256, kernel_size=(3, 3), stride=(1, 1), padding=(3, 6), dilation=(3, 6), groups=256)
    (8): Conv2d(256, 256, kernel_size=(1, 1), stride=(1, 1))
    (9): Conv2d(256, 256, kernel_size=(1, 1), stride=(1, 1))
  )
  (rs7): Sequential(
    (0): BatchNorm2d(256, eps=1e-05, momentum=0.1, affine=True, track_running_stats=True)
    (1): ReLU()
    (2): Conv2d(256, 256, kernel_size=(3, 3), stride=(1, 1), padding=(2, 3), dilation=(2, 3), groups=256)
    (3): Conv2d(256, 256, kernel_size=(1, 1), stride=(1, 1))
    (4): Conv2d(256, 256, kernel_size=(1, 1), stride=(1, 1))
    (5): BatchNorm2d(256, eps=1e-05, momentum=0.1, affine=True, track_running_stats=True)
    (6): ReLU()
    (7): Conv2d(256, 256, kernel_size=(3, 3), stride=(1, 1), padding=(2, 3), dilation=(2, 3), groups=256)
    (8): Conv2d(256, 256, kernel_size=(1, 1), stride=(1, 1))
    (9): Conv2d(256, 256, kernel_size=(1, 1), stride=(1, 1))
  )
  (downsample_rs8): Conv2d(256, 128, kernel_size=(1, 1), stride=(1, 1))
  (rs8): Sequential(
    (0): BatchNorm2d(256, eps=1e-05, momentum=0.1, affine=True, track_running_stats=True)
    (1): ReLU()
    (2): Conv2d(256, 256, kernel_size=(3, 3), stride=(1, 1), padding=(2, 3), dilation=(2, 3), groups=128)
    (3): Conv2d(256, 128, kernel_size=(1, 1), stride=(1, 1))
    (4): Conv2d(128, 128, kernel_size=(1, 1), stride=(1, 1))
    (5): BatchNorm2d(128, eps=1e-05, momentum=0.1, affine=True, track_running_stats=True)
    (6): ReLU()
    (7): Conv2d(128, 128, kernel_size=(3, 3), stride=(1, 1), padding=(2, 3), dilation=(2, 3), groups=128)
    (8): Conv2d(128, 128, kernel_size=(1, 1), stride=(1, 1))
    (9): Conv2d(128, 128, kernel_size=(1, 1), stride=(1, 1))
  )
  (rs9): Sequential(
    (0): BatchNorm2d(128, eps=1e-05, momentum=0.1, affine=True, track_running_stats=True)
    (1): ReLU()
    (2): Conv2d(128, 128, kernel_size=(3, 3), stride=(1, 1), padding=(2, 3), dilation=(2, 3), groups=128)
    (3): Conv2d(128, 128, kernel_size=(1, 1), stride=(1, 1))
    (4): Conv2d(128, 128, kernel_size=(1, 1), stride=(1, 1))
    (5): BatchNorm2d(128, eps=1e-05, momentum=0.1, affine=True, track_running_stats=True)
    (6): ReLU()
    (7): Conv2d(128, 128, kernel_size=(3, 3), stride=(1, 1), padding=(2, 3), dilation=(2, 3), groups=128)
    (8): Conv2d(128, 128, kernel_size=(1, 1), stride=(1, 1))
    (9): Conv2d(128, 128, kernel_size=(1, 1), stride=(1, 1))
  )
  (downsample_rs10): Conv2d(128, 64, kernel_size=(1, 1), stride=(1, 1))
  (rs10): Sequential(
    (0): BatchNorm2d(128, eps=1e-05, momentum=0.1, affine=True, track_running_stats=True)
    (1): ReLU()
    (2): Conv2d(128, 128, kernel_size=(3, 3), stride=(1, 1), padding=(1, 1), groups=64)
    (3): Conv2d(128, 64, kernel_size=(1, 1), stride=(1, 1))
    (4): Conv2d(64, 64, kernel_size=(1, 1), stride=(1, 1))
    (5): BatchNorm2d(64, eps=1e-05, momentum=0.1, affine=True, track_running_stats=True)
    (6): ReLU()
    (7): Conv2d(64, 64, kernel_size=(3, 3), stride=(1, 1), padding=(1, 1), groups=64)
    (8): Conv2d(64, 64, kernel_size=(1, 1), stride=(1, 1))
    (9): Conv2d(64, 64, kernel_size=(1, 1), stride=(1, 1))
  )
  (rs11): Sequential(
    (0): BatchNorm2d(64, eps=1e-05, momentum=0.1, affine=True, track_running_stats=True)
    (1): ReLU()
    (2): Conv2d(64, 64, kernel_size=(3, 3), stride=(1, 1), padding=(1, 1), groups=64)
    (3): Conv2d(64, 64, kernel_size=(1, 1), stride=(1, 1))
    (4): Conv2d(64, 64, kernel_size=(1, 1), stride=(1, 1))
    (5): BatchNorm2d(64, eps=1e-05, momentum=0.1, affine=True, track_running_stats=True)
    (6): ReLU()
    (7): Conv2d(64, 64, kernel_size=(3, 3), stride=(1, 1), padding=(1, 1), groups=64)
    (8): Conv2d(64, 64, kernel_size=(1, 1), stride=(1, 1))
    (9): Conv2d(64, 64, kernel_size=(1, 1), stride=(1, 1))
  )
  (conv_end): Conv2d(64, 2, kernel_size=(1, 1), stride=(1, 1), bias=False)
)
Total parameters:  1233088
training phase: lr= 0.001
parser: ArgumentParser(prog='main.py', usage=None, description='MIMO', formatter_class=<class 'argparse.HelpFormatter'>, conflict_handler='error', add_help=True)
log: True
phase: train
resume_epoch: epoch19
test_epoch: epoch2
resume: False
gpu_idx: 0
parallel: False
suffix: May26-v1-1750
data_mode: EVA
…
